experiments/1/model.pth (torch, 2633 bytes, 3 tensors)

position_weight_plus f4 [2, 10]
000000 09 64 68 3f 50 28 38 3f 42 3c e1 3e 5b 56 af 3e
       0.9077764 0.7193651 0.43991286 0.34245571
000010 99 a8 61 bf 1c d0 64 be 71 46 08 3f 50 73 a6 bf
       -0.88147885 -0.22345012 0.53232485 -1.300394
000020 2e 4b 3a bf 50 f6 38 3a 38 89 d8 be 93 68 0e bf
       -0.72770965 0.00070557464 -0.4229219 -0.5562832
000030 ac 4b b5 3e 35 fd 9b bf f1 99 42 bf 60 16 70 be
       0.35409296 -1.2186648 -0.76016146 -0.23446035
000040 66 04 85 3f e9 3d 04 3f f4 05 66 bf 44 ff 5f 3f
       1.0391967 0.5165697 -0.89852834 0.8749888

position_weight_minus f4 [2, 10]
000000 1d 79 59 bf 50 aa 8e bf a4 b1 43 bf 29 e2 2a bf
       -0.8495043 -1.1145725 -0.76442933 -0.66751343
000010 4d 44 c7 3f 8a 6d 4c 3e db a4 93 be 30 10 c9 3f
       1.5567719 0.19963661 -0.28836712 1.5708065
000020 d5 ca 30 3e 89 a9 82 bf 52 0c 40 bf 26 ea 98 3f
       0.17264874 -1.0207988 -0.750188 1.1946456
000030 22 68 40 bf 09 d3 c0 3f c4 40 43 3e 5f 3f 4c 3e
       -0.75158894 1.5064403 0.19067675 0.19946049
000040 47 c5 94 bf 3f 1d 70 bf fd 71 ca 3f 75 9a 12 bf
       -1.1622704 -0.93794626 1.5816036 -0.5726693

output_weight.weight f4 [1, 10]
000000 3c 9a 61 3f ae 2d 20 3f ab 04 5e 3e 9f e0 05 3e
       0.8812597 0.625697 0.21681468 0.13073967
000010 e5 7a bd 3e ee 91 35 bc c2 0b a1 3f a6 c6 e3 3e
       0.37007824 -0.011082156 1.2581713 0.44487494
000020 57 26 94 3e 65 8a 60 3f
       0.289355 0.87711173
