experiments/1/model.pth (torch, 2633 bytes, 3 tensors)

position_weight_plus f4 [2, 10]
000000 40 fc 43 b9 0a 53 a5 3e ee e3 89 3f 50 62 ae bf
       -0.0001869062 0.32289916 1.0772684 -1.3623753
000010 fb 2e 4d bf 7d 50 cf bf 7f 65 98 3f 5b 1a 15 bf
       -0.8014981 -1.6196438 1.1905974 -0.5824334
000020 13 e6 f3 3e b8 95 ed be 38 47 f7 be 16 5c 2a bf
       0.4763647 -0.4640329 -0.48296523 -0.6654676
000030 6e d2 e4 bf 1b a9 29 3f 9e ab 48 bd 87 87 ec 3d
       -1.7876718 0.6627366 -0.048991792 0.11549287
000040 4f a8 52 3f 6a 91 bb 3f 3f 1c f0 3e 83 f6 91 3f
       0.8228807 1.4653752 0.4689655 1.1403354

position_weight_minus f4 [2, 10]
000000 d9 f2 a6 3f 91 e5 9e bd d5 46 a1 3e 6e 98 df 3d
       1.3042861 -0.0775863 0.31499353 0.109177455
000010 11 ee 24 bc a1 31 ed 3e f2 2a 5f 3e 6c d8 7d bf
       -0.010066525 0.46326926 0.21793726 -0.9915836
000020 22 ae 78 c0 d5 ea 22 bf 4a 9c e3 bd d6 fa eb be
       -3.8856282 -0.63639575 -0.11113794 -0.4608981
000030 f2 92 66 3e ef d9 50 3f a0 08 ac 3f 18 2a cb 3b
       0.22516993 0.8158254 1.3440132 0.0062000863
000040 dc 36 bf 3f aa d5 ed bf d6 8b f2 3c 2b a1 09 be
       1.4938617 -1.858083 0.029607695 -0.13440387

output_weight.weight f4 [1, 10]
000000 df 79 68 3e 92 70 1e 3c fb f9 fe 3e 68 63 da 3d
       0.2270274 0.009670394 0.49800095 0.106634915
000010 39 ef 1f be 80 fd 24 b9 93 c3 ca 3e 79 97 10 3f
       -0.156186 -0.00015734695 0.39602336 0.5648113
000020 4e 59 cb 3e 14 ea 20 3e
       0.39716572 0.15714294
