experiments/1/model.pth (torch, 2633 bytes, 3 tensors)

position_weight_plus f4 [2, 10]
00000000: 8271 763f 488e 8a3f 6813 d33e 8397 fb3c
00000010: f81f 69bf 4e04 083e 158d 7f3e a1d1 b7bf
00000020: 6113 35bf e0e0 d5bc dd4b fbbe 9cd6 3dbe
00000030: db33 e73e 0951 a5bf d9c0 48bf 9e96 513e
00000040: 92f0 6d3f d1b8 063f 7978 41bf ca29 7c3f
0.9626695 1.0824671 0.41225743 0.030711895 -0.91064405 0.13282892 0.24956162 -1.4360849
-0.70732695 -0.026108205 -0.49081317 -0.18538898 0.4515675 -1.2915355 -0.7841926 0.20467612
0.92945206 0.5262576 -0.7557445 0.98501265

position_weight_minus f4 [2, 10]
00000000: 4e26 27bf d606 92bf e640 1dbf a60e 58be
00000010: 0d35 c93f 7e8f 53be c06c 9abe f9d9 cf3f
00000020: a8cf 3f3e bdc6 87bf 560f 6fbf c313 923f
00000030: 3064 7dbf 5220 c93f a6da 573e a465 7dbd
00000040: 7102 95bf 5a72 75bf 9059 cb3f 2cbf 08bf
-0.65292823 -1.1408336 -0.6142715 -0.21099338 1.5719315 -0.20660207 -0.30161095 1.6238395
0.18731558 -1.0607525 -0.93382776 1.1412281 -0.98981 1.5712988 0.21079502 -0.06186451
-1.164137 -0.9587761 1.5886707 -0.53416705

output_weight.weight f4 [1, 10]
00000000: ae91 643f 0a93 343f 73d1 a93e 1fba 303e
00000010: 939a ce3e f21b 63bd 06a8 793f 9242 ca3e
00000020: 761a 633e 6c8b 703f
0.8928479 0.70536864 0.3316761 0.172585 0.40352306 -0.055446573 0.9752201 0.39503914
0.22178063 0.9396274
